models/rainbow_dqn_ep5_20250403_101501.pth (torch, 243450 bytes, 124 tensors)

input_layer.weight_mu f4 [64, 4]
0	0x3ec3b8cc	0.38226926
1	0x3ed47b66	0.41500396
2	0xbdefe520	-0.11713624
3	0x3eeb2a1c	0.45930564
4	0xbde05cb0	-0.10955179
5	0x3dcea238	0.100895345
6	0xbe794510	-0.24342752
7	0x3e965828	0.29364133
8	0x3ee1accc	0.44077146
9	0xbebbcf0e	-0.36681408
10	0x3ede83a4	0.4345981
11	0x3dbfa6b0	0.09357965
12	0x3ebd2294	0.36940444
13	0x3d8aae50	0.06771529
14	0x3e76e15c	0.24109405
15	0xbd909460	-0.0705955
16	0x3ec558c6	0.3854429
17	0x3d975b38	0.073904455
18	0xbe6f05a4	-0.23341995
19	0x3e028208	0.12744915
20	0xbe6be5ac	-0.23036832
21	0xbd702cc0	-0.058636427
22	0xbe4ff3fc	-0.20307916
23	0x3ea9d2ae	0.33168548
24	0xbeca142a	-0.3946851
25	0xbe6c098c	-0.23050517
26	0xbe10936c	-0.14118737
27	0xbe99ecfe	-0.30063623
28	0x3d414bf0	0.04719156
29	0xbefcd88a	-0.49383956
30	0x3ee73228	0.45155454
31	0xbed976c0	-0.42473412
32	0x3ec5a396	0.3860137
33	0x3daa69c8	0.083209574
34	0xbe263fac	-0.16235226
35	0x3e9e31f8	0.30897498
36	0x3d9f9758	0.077925384
37	0x3eced6b0	0.4039817
38	0x3d5fe300	0.054659843
39	0xbe217898	-0.15768659
40	0x3e0990e8	0.13434184
41	0xbe0ad808	-0.13558972
42	0x3e577aa4	0.21042877
43	0x3ee48ffe	0.44641107
44	0x3e93fbb6	0.28902978
45	0xbe5fd514	-0.21858627
46	0x3e93c79e	0.28863233
47	0x3db73870	0.089463115
48	0x3e82017a	0.25391752
49	0xbe9c0886	-0.30475253
50	0xbefd6aa4	-0.49495423
51	0xbe45d10c	-0.19318026
52	0xbec45b9c	-0.38351142
53	0x3ed20ed6	0.41026944
54	0x3e1378d8	0.14401567
55	0x3e5413cc	0.20710677
56	0x3e21ecfc	0.15813059
57	0xbc0e8200	-0.008697987
58	0x3ec85904	0.39130414
59	0xbeb5e438	-0.3552568
60	0x3d00f320	0.031481862
61	0xbeaebaf4	-0.3412701
62	0x3e1de050	0.154176
63	0xbe3052e0	-0.17219114
64	0x3e1ce298	0.15320814
65	0xbdd55778	-0.10417074
66	0x3ed45306	0.41469592
67	0xbe97bb50	-0.29635096
68	0xbe98ad8a	-0.298199
69	0xbe98afe6	-0.298217
70	0x3ee641e2	0.4497214
71	0x3e2a9fe4	0.16662556
72	0x3ef65610	0.48112535
73	0xbed3454e	-0.41263813
74	0xbefdeb98	-0.49593806
75	0xbec848fe	-0.3911819
76	0xbeac355a	-0.33634454
77	0x3e4f616c	0.20252007
78	0x3e3755b8	0.17903793
79	0x3ed4b776	0.4154622
80	0xbe843474	-0.2582127
81	0xbeae84aa	-0.3408559
82	0x3e87d3f8	0.26528907
83	0xbe4ef3e4	-0.20210224
84	0x3e9b5f5c	0.3034619
85	0xbdf2fef0	-0.11865032
86	0x3e92719a	0.28602296
87	0xbec6e760	-0.388484
88	0xbe8130ba	-0.25232488
89	0x3e1c18c4	0.15243822
90	0x3dd87b38	0.10570377
91	0xbe0289f4	-0.12747937
92	0x3e989802	0.29803473
93	0x3eae07fa	0.3399046
94	0xbeb9a4f6	-0.36258668
95	0xbe88ab96	-0.2669341
96	0x3eea68d2	0.45783097
97	0xbe2cc3f4	-0.16871625
98	0xbe35832c	-0.1772582
99	0xbef7b448	-0.4837973
100	0xbe929a84	-0.2863351
101	0x3dffcc88	0.12490183
102	0xbd872938	-0.06599659
103	0xbeb9d3aa	-0.362943
104	0x3c402840	0.011728346
105	0xbeaede6e	-0.34154075
106	0xbed93086	-0.42419833
107	0xbe8cf83a	-0.27533132
108	0xbee00de6	-0.43760604
109	0xbea30144	-0.31836903
110	0x3effe65e	0.49980444
111	0x3dc16870	0.09443748
112	0x3e1dc71c	0.15407985
113	0xbeeec466	-0.46634215
114	0xbea82254	-0.3283869
115	0xbe2a6c14	-0.16642791
116	0x3da01fc0	0.07818556
117	0xbee14286	-0.43996066
118	0xbe5c9b64	-0.21543652
119	0xbe994258	-0.2993343
120	0x3ab59e00	0.0013856292
121	0xbe3e8450	-0.1860516
122	0xbd0deaf0	-0.034647882
123	0xbead7924	-0.33881485
124	0xbeafb798	-0.34319758
125	0xbe9559d2	-0.2917009
126	0xbe2f419c	-0.17114872
127	0xbeca0e50	-0.39464045
128	0x3ed6a5f6	0.41923493
129	0xbdcb3a28	-0.09923202
130	0x3edc42f6	0.43019837
131	0x3e1f87b0	0.15579104
132	0xbed8c7b0	-0.4233985
133	0x3eb12938	0.3460176
134	0xbe0cdfc8	-0.13757241
135	0xbe444350	-0.19166303
136	0xbed47f80	-0.41503525
137	0xbefe8150	-0.49708033
138	0x3e127d18	0.14305532
139	0xbddfafc0	-0.109221935
140	0x3e47555c	0.19466156
141	0xbed21700	-0.41033173
142	0x3ebe0fd6	0.37121457
143	0xbebbeaf2	-0.36702687
144	0xbdb0d148	-0.08633667
145	0x3dd5e1f0	0.10443485
146	0x3e842914	0.2581259
147	0x3eceabe4	0.40365517
148	0x3ee934a0	0.45547962
149	0xbecafcf2	-0.39646107
150	0x3e00da88	0.12583363
151	0xbe5c3978	-0.21506298
152	0xbd606e00	-0.054792404
153	0xbebf9d0c	-0.37424505
154	0x3ee92e08	0.45542932
155	0xbebbe42e	-0.36697525
156	0x3e88d1cc	0.26722562
157	0x3e33efe4	0.1757198
158	0x3e2660a0	0.16247797
159	0xbe8a67ca	-0.2703231
160	0x3ee8b10c	0.45447576
161	0x3de10640	0.1098752
162	0x3d83ba38	0.06432003
163	0xbee199ea	-0.4406274
164	0x3e56ee84	0.20989424
165	0xbd999f00	-0.0750103
166	0xbe6a8f44	-0.22906214
167	0x3edbe3ec	0.42947328
168	0x3de44cb0	0.111474395
169	0xbe8da386	-0.2766382
170	0xbe819252	-0.25306946
171	0xbcc39b80	-0.02387786
172	0x3e8ef0c4	0.27918065
173	0xbe02d554	-0.1277669
174	0xbe921132	-0.28528744
175	0xbe2f54ac	-0.17122144
176	0xbebf404c	-0.37353742
177	0x3e369888	0.17831624
178	0x3ec62780	0.3870201
179	0xbef1023c	-0.47072017
180	0x3dedd320	0.116125345
181	0x3e843f5c	0.2582959
182	0x3db9ae68	0.090664685
183	0xbe3655f8	-0.17806232
184	0x3e859e00	0.26097107
185	0x3e868808	0.2627566
186	0x3e3f7364	0.18696362
187	0xbdb3f050	-0.0878607
188	0xbe079408	-0.13240063
189	0x3d5b18d0	0.05349046
190	0xbdb4e4d0	-0.08832705
191	0xbe189398	-0.14900053
192	0x3ea3a310	0.31960344
193	0x3edc019c	0.42969978
194	0xbd4abf20	-0.049498677
195	0xbde54538	-0.11194843
196	0x3bef1480	0.007296145
197	0xbcf490a0	-0.029854119
198	0x3df62e60	0.12020564
199	0x3e0f7ac8	0.14011681
200	0xbee88384	-0.45412838
201	0xbe3cf284	-0.18451887
202	0x3ed795cc	0.42106473
203	0x3e4773c0	0.19477749
204	0xbccbb9a0	-0.024868786
205	0xbe9a5808	-0.30145288
206	0xbe9c9f42	-0.30590254
207	0xbee550fa	-0.44788343
208	0xbe26e48c	-0.16298121
209	0x3e2ce790	0.16885209
210	0x3ea33b2c	0.31881082
211	0x3e6c6398	0.23084867
212	0xbee24a28	-0.44197202
213	0xbe99f2e4	-0.30068123
214	0xbda19ab0	-0.078908324
215	0x3ef7a438	0.48367476
216	0x3d942118	0.07232875
217	0xbe0497d0	-0.12948537
218	0x3e53d27c	0.20685762
219	0xbe4302e8	-0.19044077
220	0xbea5b28c	-0.32362783
221	0x3ebad9e4	0.36494362
222	0xbe68ceac	-0.22735089
223	0xbdcd4728	-0.100233376
224	0xbefeab7e	-0.49740213
225	0x3eab5552	0.33463532
226	0x3ec1f458	0.37881732
227	0x3e3a98f4	0.1822241
228	0xbeb28090	-0.3486371
229	0xbefca818	-0.49346995
230	0xbecfeaf6	-0.40608948
231	0x3ebee636	0.37285012
232	0x3e75d06c	0.24005288
233	0x3ed76cd6	0.42075223
234	0x3e861c56	0.26193494
235	0x3e01954c	0.12654608
236	0xbba07180	-0.0048963428
237	0xbec2b086	-0.38025302
238	0xbedb556c	-0.4283861
239	0xbeef7302	-0.46767431
240	0x3e5197e4	0.20468098
241	0xbe7b6028	-0.245484
242	0xbdce1528	-0.10062629
243	0xbe935450	-0.28775263
244	0xbdba98d0	-0.09111178
245	0xbeb42e86	-0.35191745
246	0xbea74640	-0.32670784
247	0x3e29d600	0.16585541
248	0xbe182a20	-0.1485982
249	0x3e9e0a34	0.3086716
250	0xbe24410c	-0.16040438
251	0xbebbcb10	-0.36678362
252	0xbdb4ac68	-0.088219464
253	0xbe7830d0	-0.2423737
254	0xbe1ca460	-0.15297079
255	0xbef3b5fc	-0.4759978

input_layer.weight_sigma f4 [64, 4]
0	0x3e800000	0.25
1	0x3e800000	0.25
2	0x3e800000	0.25
3	0x3e800000	0.25
4	0x3e800000	0.25
5	0x3e800000	0.25
6	0x3e800000	0.25
7	0x3e800000	0.25
8	0x3e800000	0.25
9	0x3e800000	0.25
10	0x3e800000	0.25
11	0x3e800000	0.25
12	0x3e800000	0.25
13	0x3e800000	0.25
14	0x3e800000	0.25
15	0x3e800000	0.25
16	0x3e800000	0.25
17	0x3e800000	0.25
18	0x3e800000	0.25
19	0x3e800000	0.25
20	0x3e800000	0.25
21	0x3e800000	0.25
22	0x3e800000	0.25
23	0x3e800000	0.25
24	0x3e800000	0.25
25	0x3e800000	0.25
26	0x3e800000	0.25
27	0x3e800000	0.25
28	0x3e800000	0.25
29	0x3e800000	0.25
30	0x3e800000	0.25
31	0x3e800000	0.25
32	0x3e800000	0.25
33	0x3e800000	0.25
34	0x3e800000	0.25
35	0x3e800000	0.25
36	0x3e800000	0.25
37	0x3e800000	0.25
38	0x3e800000	0.25
39	0x3e800000	0.25
40	0x3e800000	0.25
41	0x3e800000	0.25
42	0x3e800000	0.25
43	0x3e800000	0.25
44	0x3e800000	0.25
45	0x3e800000	0.25
46	0x3e800000	0.25
47	0x3e800000	0.25
48	0x3e800000	0.25
49	0x3e800000	0.25
50	0x3e800000	0.25
51	0x3e800000	0.25
52	0x3e800000	0.25
53	0x3e800000	0.25
54	0x3e800000	0.25
55	0x3e800000	0.25
56	0x3e800000	0.25
57	0x3e800000	0.25
58	0x3e800000	0.25
59	0x3e800000	0.25
60	0x3e800000	0.25
61	0x3e800000	0.25
62	0x3e800000	0.25
63	0x3e800000	0.25
64	0x3e800000	0.25
65	0x3e800000	0.25
66	0x3e800000	0.25
67	0x3e800000	0.25
68	0x3e800000	0.25
69	0x3e800000	0.25
70	0x3e800000	0.25
71	0x3e800000	0.25
72	0x3e800000	0.25
73	0x3e800000	0.25
74	0x3e800000	0.25
75	0x3e800000	0.25
76	0x3e800000	0.25
77	0x3e800000	0.25
78	0x3e800000	0.25
79	0x3e800000	0.25
80	0x3e800000	0.25
81	0x3e800000	0.25
82	0x3e800000	0.25
83	0x3e800000	0.25
84	0x3e800000	0.25
85	0x3e800000	0.25
86	0x3e800000	0.25
87	0x3e800000	0.25
88	0x3e800000	0.25
89	0x3e800000	0.25
90	0x3e800000	0.25
91	0x3e800000	0.25
92	0x3e800000	0.25
93	0x3e800000	0.25
94	0x3e800000	0.25
95	0x3e800000	0.25
96	0x3e800000	0.25
97	0x3e800000	0.25
98	0x3e800000	0.25
99	0x3e800000	0.25
100	0x3e800000	0.25
101	0x3e800000	0.25
102	0x3e800000	0.25
103	0x3e800000	0.25
104	0x3e800000	0.25
105	0x3e800000	0.25
106	0x3e800000	0.25
107	0x3e800000	0.25
108	0x3e800000	0.25
109	0x3e800000	0.25
110	0x3e800000	0.25
111	0x3e800000	0.25
112	0x3e800000	0.25
113	0x3e800000	0.25
114	0x3e800000	0.25
115	0x3e800000	0.25
116	0x3e800000	0.25
117	0x3e800000	0.25
118	0x3e800000	0.25
119	0x3e800000	0.25
120	0x3e800000	0.25
121	0x3e800000	0.25
122	0x3e800000	0.25
123	0x3e800000	0.25
124	0x3e800000	0.25
125	0x3e800000	0.25
126	0x3e800000	0.25
127	0x3e800000	0.25
128	0x3e800000	0.25
129	0x3e800000	0.25
130	0x3e800000	0.25
131	0x3e800000	0.25
132	0x3e800000	0.25
133	0x3e800000	0.25
134	0x3e800000	0.25
135	0x3e800000	0.25
136	0x3e800000	0.25
137	0x3e800000	0.25
138	0x3e800000	0.25
139	0x3e800000	0.25
140	0x3e800000	0.25
141	0x3e800000	0.25
142	0x3e800000	0.25
143	0x3e800000	0.25
144	0x3e800000	0.25
145	0x3e800000	0.25
146	0x3e800000	0.25
147	0x3e800000	0.25
148	0x3e800000	0.25
149	0x3e800000	0.25
150	0x3e800000	0.25
151	0x3e800000	0.25
152	0x3e800000	0.25
153	0x3e800000	0.25
154	0x3e800000	0.25
155	0x3e800000	0.25
156	0x3e800000	0.25
157	0x3e800000	0.25
158	0x3e800000	0.25
159	0x3e800000	0.25
160	0x3e800000	0.25
161	0x3e800000	0.25
162	0x3e800000	0.25
163	0x3e800000	0.25
164	0x3e800000	0.25
165	0x3e800000	0.25
166	0x3e800000	0.25
167	0x3e800000	0.25
168	0x3e800000	0.25
169	0x3e800000	0.25
170	0x3e800000	0.25
171	0x3e800000	0.25
172	0x3e800000	0.25
173	0x3e800000	0.25
174	0x3e800000	0.25
175	0x3e800000	0.25
176	0x3e800000	0.25
177	0x3e800000	0.25
178	0x3e800000	0.25
179	0x3e800000	0.25
180	0x3e800000	0.25
181	0x3e800000	0.25
182	0x3e800000	0.25
183	0x3e800000	0.25
184	0x3e800000	0.25
185	0x3e800000	0.25
186	0x3e800000	0.25
187	0x3e800000	0.25
188	0x3e800000	0.25
189	0x3e800000	0.25
190	0x3e800000	0.25
191	0x3e800000	0.25
192	0x3e800000	0.25
193	0x3e800000	0.25
194	0x3e800000	0.25
195	0x3e800000	0.25
196	0x3e800000	0.25
197	0x3e800000	0.25
198	0x3e800000	0.25
199	0x3e800000	0.25
200	0x3e800000	0.25
201	0x3e800000	0.25
202	0x3e800000	0.25
203	0x3e800000	0.25
204	0x3e800000	0.25
205	0x3e800000	0.25
206	0x3e800000	0.25
207	0x3e800000	0.25
208	0x3e800000	0.25
209	0x3e800000	0.25
210	0x3e800000	0.25
211	0x3e800000	0.25
212	0x3e800000	0.25
213	0x3e800000	0.25
214	0x3e800000	0.25
215	0x3e800000	0.25
216	0x3e800000	0.25
217	0x3e800000	0.25
218	0x3e800000	0.25
219	0x3e800000	0.25
220	0x3e800000	0.25
221	0x3e800000	0.25
222	0x3e800000	0.25
223	0x3e800000	0.25
224	0x3e800000	0.25
225	0x3e800000	0.25
226	0x3e800000	0.25
227	0x3e800000	0.25
228	0x3e800000	0.25
229	0x3e800000	0.25
230	0x3e800000	0.25
231	0x3e800000	0.25
232	0x3e800000	0.25
233	0x3e800000	0.25
234	0x3e800000	0.25
235	0x3e800000	0.25
236	0x3e800000	0.25
237	0x3e800000	0.25
238	0x3e800000	0.25
239	0x3e800000	0.25
240	0x3e800000	0.25
241	0x3e800000	0.25
242	0x3e800000	0.25
243	0x3e800000	0.25
244	0x3e800000	0.25
245	0x3e800000	0.25
246	0x3e800000	0.25
247	0x3e800000	0.25
248	0x3e800000	0.25
249	0x3e800000	0.25
250	0x3e800000	0.25
251	0x3e800000	0.25
252	0x3e800000	0.25
253	0x3e800000	0.25
254	0x3e800000	0.25
255	0x3e800000	0.25

input_layer.bias_mu f4 [64]
0	0x3e8f3acc	0.27974546
1	0xbeb23a76	-0.34810227
2	0x3e80ab8e	0.25130886
3	0x3e685668	0.22689211
4	0x3eb6e510	0.35721636
5	0xbec45d86	-0.38352603
6	0x3eb81d48	0.3595984
7	0xbe720c80	-0.23637581
8	0x3e3dfcc8	0.1855346
9	0x3ef069d2	0.46955734
10	0xbd906aa8	-0.07051593
11	0xbb7d6900	-0.0038667321
12	0xbdebc190	-0.115115285
13	0xbed5c18c	-0.41749227
14	0x3e75b5d4	0.23995143
15	0xbefe22c2	-0.49635893
16	0x3e9eecbe	0.31039995
17	0x3ebf8bae	0.37411255
18	0x3ef219d0	0.47285318
19	0xbdf18a68	-0.11793977
20	0xbed25720	-0.41082096
21	0x3de639e8	0.112415135
22	0x3e8d6be0	0.27621365
23	0xbefecc8e	-0.49765438
24	0xbde86e68	-0.11349183
25	0xbe9975ea	-0.29972774
26	0xbd332030	-0.04373187
27	0xbe7c0368	-0.24610674
28	0xbe5149fc	-0.20438379
29	0xbe2289f8	-0.15872943
30	0xbef34720	-0.47515202
31	0x3ed20cc8	0.41025376
32	0x3ed69ce0	0.4191656
33	0xbda0a248	-0.07843453
34	0xbd693b00	-0.056941032
35	0xbe50f518	-0.20405996
36	0xbee72f20	-0.4515314
37	0xbef91ffe	-0.4865722
38	0x3e3e4a04	0.18582922
39	0xbe8c8e4a	-0.27452308
40	0xbea49396	-0.3214385
41	0xbd1fcaa0	-0.039011598
42	0xbe2a8070	-0.16650558
43	0xbe25a484	-0.16176039
44	0x3c839c00	0.016065598
45	0xbdd93400	-0.10605621
46	0xbe3049b8	-0.17215621
47	0xbe75260c	-0.23940295
48	0xbed056fe	-0.4069137
49	0x3ed6a868	0.4192536
50	0xbe4ce554	-0.20009357
51	0x3e07ab64	0.13248974
52	0xbe31a584	-0.17348295
53	0x3d266c50	0.04063064
54	0x3eeeab3e	0.46615022
55	0x3e6be3d8	0.23036134
56	0xbeddd97a	-0.43329984
57	0x3e4b36d8	0.1984514
58	0x3ef30194	0.47462142
59	0x3e06b2dc	0.13154167
60	0x3eaba0f4	0.33521235
61	0x3efc6320	0.49294376
62	0xbd9ce810	-0.0766145
63	0x3dd48928	0.10377723

input_layer.bias_sigma f4 [64]
0	0x3d800000	0.0625
1	0x3d800000	0.0625
2	0x3d800000	0.0625
3	0x3d800000	0.0625
4	0x3d800000	0.0625
5	0x3d800000	0.0625
6	0x3d800000	0.0625
7	0x3d800000	0.0625
8	0x3d800000	0.0625
9	0x3d800000	0.0625
10	0x3d800000	0.0625
11	0x3d800000	0.0625
12	0x3d800000	0.0625
13	0x3d800000	0.0625
14	0x3d800000	0.0625
15	0x3d800000	0.0625
16	0x3d800000	0.0625
17	0x3d800000	0.0625
18	0x3d800000	0.0625
19	0x3d800000	0.0625
20	0x3d800000	0.0625
21	0x3d800000	0.0625
22	0x3d800000	0.0625
23	0x3d800000	0.0625
24	0x3d800000	0.0625
25	0x3d800000	0.0625
26	0x3d800000	0.0625
27	0x3d800000	0.0625
28	0x3d800000	0.0625
29	0x3d800000	0.0625
30	0x3d800000	0.0625
31	0x3d800000	0.0625
32	0x3d800000	0.0625
33	0x3d800000	0.0625
34	0x3d800000	0.0625
35	0x3d800000	0.0625
36	0x3d800000	0.0625
37	0x3d800000	0.0625
38	0x3d800000	0.0625
39	0x3d800000	0.0625
40	0x3d800000	0.0625
41	0x3d800000	0.0625
42	0x3d800000	0.0625
43	0x3d800000	0.0625
44	0x3d800000	0.0625
45	0x3d800000	0.0625
46	0x3d800000	0.0625
47	0x3d800000	0.0625
48	0x3d800000	0.0625
49	0x3d800000	0.0625
50	0x3d800000	0.0625
51	0x3d800000	0.0625
52	0x3d800000	0.0625
53	0x3d800000	0.0625
54	0x3d800000	0.0625
55	0x3d800000	0.0625
56	0x3d800000	0.0625
57	0x3d800000	0.0625
58	0x3d800000	0.0625
59	0x3d800000	0.0625
60	0x3d800000	0.0625
61	0x3d800000	0.0625
62	0x3d800000	0.0625
63	0x3d800000	0.0625

input_layer.weight_epsilon f4 [64, 4]
0	0xbef010e8	-0.46887898
1	0xbf8915c6	-1.070977
2	0x3f17eeab	0.59348553
3	0xbe875013	-0.2642828
4	0xbe30e8a0	-0.1727624
5	0xbeca0a62	-0.39461046
6	0x3e5fec45	0.21867473
7	0xbdc76db5	-0.09737722
8	0xbea79112	-0.32727867
9	0xbf3f5f14	-0.7475445
10	0x3ed41926	0.41425437
11	0xbe3ce5b7	-0.18447004
12	0xbf467baf	-0.77532476
13	0xbfe2ae0d	-1.7709366
14	0x3f7b3b1a	0.98137057
15	0xbedfbfd4	-0.4370104
16	0xbef7dfc6	-0.48412913
17	0xbf8d8b30	-1.1058102
18	0x3f1cdfb5	0.6127885
19	0xbe8bb6bc	-0.27287853
20	0xbece0f71	-0.40246156
21	0xbf6b555f	-0.9192714
22	0x3f02692e	0.5094174
23	0xbe684a83	-0.22684674
24	0x3e083be2	0.13304093
25	0x3e9b9664	0.30388176
26	0xbe2c704c	-0.16839713
27	0x3d999375	0.07498828
28	0x3ef9b49f	0.48770615
29	0x3f8e96ea	1.1139805
30	0xbf1e086e	-0.6173161
31	0x3e8cbf00	0.2748947
32	0x3e9937a9	0.29925278
33	0x3f2efbd2	0.68353
34	0xbec1ef84	-0.37878048
35	0x3e2cb8b2	0.1686733
36	0xbf2f0a42	-0.6837503
37	0xbfc7e80e	-1.5617692
38	0x3f5d8ec6	0.8654598
39	0xbec55272	-0.38539463
40	0x3f749013	0.9553234
41	0x400ba721	2.1820757
42	0xbf9ac738	-1.2092047
43	0x3f09d8ee	0.53846633
44	0x3eed0ef8	0.46300483
45	0x3f875e1e	1.0575597
46	0xbf160765	-0.58605033
47	0x3e859e1a	0.26097184
48	0x3e8346b1	0.2563987
49	0x3f15ece6	0.58564603
50	0xbea629d0	-0.32453775
51	0x3e13fcb4	0.14451867
52	0x3ec58ba8	0.38583112
53	0x3f619bed	0.8812855
54	0xbefa0b49	-0.48836735
55	0x3e5eb13f	0.21747302
56	0x3f651fc0	0.8950157
57	0x4002d63a	2.0443254
58	0xbf9101e2	-1.13287
59	0x3f012536	0.50447404
60	0x3e94c384	0.29055417
61	0x3f29e5b5	0.6636613
62	0xbebc4c5f	-0.36777017
63	0x3e27b369	0.16377033
64	0x3ecb60d8	0.39722323
65	0x3f68453c	0.90730643
66	0xbf00b6a6	-0.502787
67	0x3e654483	0.22389416
68	0x3e7f93bc	0.249587
69	0x3f11f13d	0.57008725
70	0xbea1bfb7	-0.3159158
71	0x3e100e3a	0.14067927
72	0x3f961607	1.1725472
73	0x402b684e	2.6782413
74	0xbfbdf8d8	-1.4841566
75	0x3f293104	0.66090417
76	0xbf194536	-0.5987123
77	0xbfaf0b4c	-1.3675323
78	0x3f4200ab	0.7578227
79	0xbeacc7f8	-0.33746314
80	0x3e9d2129	0.30689362
81	0x3f337398	0.7009826
82	0xbec6e32a	-0.38845187
83	0x3e3121ae	0.17298004
84	0xbf4d5fb4	-0.80224156
85	0xbfea8cab	-1.8324178
86	0x3f81f9f5	1.0154406
87	0xbee78467	-0.45218202
88	0x3edf48c7	0.43610212
89	0x3f7f011b	0.9961106
90	0xbf0d4fc0	-0.55199814
91	0x3e7bb525	0.2458082
92	0x3f6829b3	0.9068863
93	0x40049276	2.0714393
94	0xbf92ee3b	-1.1478952
95	0x3f02dbb3	0.51116484
96	0xbec5026e	-0.38478416
97	0xbf60ff35	-0.87889415
98	0x3ef95d98	0.4870422
99	0xbe5e168e	-0.21688291
100	0xbf165963	-0.58730143
101	0xbfabb53c	-1.3414683
102	0x3f3e4e1b	0.7433793
103	0xbea97cf3	-0.3310314
104	0x3e44381b	0.19162028
105	0x3ee01824	0.43768418
106	0xbe785d81	-0.24254419
107	0x3ddd327a	0.10800643
108	0xbea3f411	-0.32022145
109	0xbf3b3eab	-0.731425
110	0x3ecf8652	0.40532166
111	0xbe38d2f6	-0.18049225
112	0xbf05c0db	-0.522474
113	0xbf98c127	-1.1933945
114	0x3f294c82	0.66132367
115	0xbe96c798	-0.29449153
116	0x3ee08746	0.43853205
117	0x3f80366d	1.001661
118	0xbf0e1951	-0.5550738
119	0x3e7d1c2f	0.24717782
120	0x3f5001af	0.8125257
121	0x3fed8e65	1.855908
122	0xbf83a481	-1.0284578
123	0x3eea7c2e	0.45797867
124	0xbeb26a84	-0.3484689
125	0xbf4bc318	-0.79594564
126	0x3ee1d4b6	0.44107598
127	0xbe4920b8	-0.19641387
128	0x3f23aabb	0.6393239
129	0x3fbaeaea	1.460294
130	0xbf4f297f	-0.80922693
131	0x3eb8804a	0.36035377
132	0xbf143757	-0.5789694
133	0xbfa9459e	-1.322437
134	0x3f3b9af1	0.73283297
135	0xbea71564	-0.32633507
136	0x3ec48632	0.38383633
137	0x3f607153	0.8767292
138	0xbef8c058	-0.48584247
139	0x3e5d8a81	0.21634866
140	0x3ebfbc79	0.3744848
141	0x3f5af979	0.85536915
142	0xbef2b0e1	-0.47400573
143	0x3e5824c0	0.21107769
144	0x3ee33862	0.44378954
145	0x3f81bfed	1.0136696
146	0xbf0fcd70	-0.5617285
147	0x3e801282	0.2501412
148	0xbf4797a0	-0.77965736
149	0xbfe3f255	-1.7808329
150	0x3f7ca281	0.9868546
151	0xbee0ffeb	-0.4394525
152	0x3f2a29f2	0.66470253
153	0x3fc25669	1.518262
154	0xbf5762b8	-0.8413501
155	0x3ebfd33a	0.3746584
156	0xbdedf721	-0.11619402
157	0xbe87e2b0	-0.26540136
158	0x3e169a53	0.14707308
159	0xbd8620f6	-0.065492555
160	0x3e964448	0.2934897
161	0x3f2b9d21	0.67036635
162	0xbebe3364	-0.37148583
163	0x3e296528	0.16542494
164	0xbe0b8420	-0.1362462
165	0xbe9f5601	-0.31120303
166	0x3e3097d7	0.17245422
167	0xbd9d46aa	-0.07679494
168	0xbe519184	-0.20465666
169	0xbeef5708	-0.46746087
170	0x3e84a18d	0.25904503
171	0xbdec3ee9	-0.11535437
172	0xbf411a7a	-0.75431025
173	0xbfdc8933	-1.722937
174	0x3f746be7	0.95477146
175	0xbed9af50	-0.42516565
176	0x3f5d020d	0.86331254
177	0x3ffc6799	1.9719115
178	0xbf8bdef4	-1.0927415
179	0x3ef9243d	0.4866046
180	0x3f033070	0.51245785
181	0x3f95d37b	1.1705164
182	0xbf260da5	-0.6486457
183	0x3e93e39e	0.28884596
184	0x3f3129b2	0.69204247
185	0x3fca54b2	1.5807097
186	0xbf603ea2	-0.8759557
187	0x3ec7b70f	0.3900685
188	0x3efd0a72	0.49422032
189	0x3f907e79	1.1288596
190	0xbf2024cc	-0.6255615
191	0x3e8ea041	0.2785664
192	0xbf4d602b	-0.80224866
193	0xbfea8d34	-1.8324342
194	0x3f81fa41	1.0154496
195	0xbee784ee	-0.45218605
196	0x3f646e45	0.8923076
197	0x400270e2	2.0381398
198	0xbf90918f	-1.1294421
199	0x3f00c12c	0.50294757
200	0x3f7a2c45	0.977238
201	0x400edb3d	2.2321312
202	0xbf9e5427	-1.2369431
203	0x3f0d0270	0.55081844
204	0xbe66280f	-0.22476219
205	0xbf036d28	-0.51338434
206	0x3e91a928	0.28449368
207	0xbe01ba30	-0.12668681
208	0x3ef8ea7b	0.48616394
209	0x3f8e237d	1.110458
210	0xbf1d8880	-0.6153641
211	0x3e8c4d10	0.27402544
212	0xbeeb2019	-0.45922926
213	0xbf864388	-1.0489359
214	0x3f14ce34	0.5812714
215	0xbe84872b	-0.25884375
216	0xbf4455b2	-0.7669326
217	0xbfe039ef	-1.751768
218	0x3f7882f5	0.97074825
219	0xbedd53d5	-0.4322802
220	0xbf07ff3e	-0.53123844
221	0xbf9b5123	-1.2134136
222	0x3f2c238b	0.67241734
223	0xbe994f1a	-0.29943162
224	0xbe2c9a25	-0.16855676
225	0xbec51f48	-0.38500428
226	0x3e5a78cd	0.21335144
227	0xbdc292e3	-0.09500673
228	0xbef686c0	-0.4814968
229	0xbf8cc62b	-1.0997976
230	0x3f1c055a	0.60945666
231	0xbe8af443	-0.27139482
232	0x3f312705	0.69200164
233	0x3fca51a3	1.5806164
234	0xbf603b3f	-0.875904
235	0x3ec7b40b	0.3900455
236	0x3eb88cff	0.3604507
237	0x3f52c4ad	0.82331353
238	0xbee9988d	-0.456242
239	0x3e500b1d	0.2031674
240	0xbf708e55	-0.9396718
241	0xc0095d65	-2.1463253
242	0x3f983e0d	1.1893936
243	0xbf0796c6	-0.52964437
244	0x3ed466df	0.41484734
245	0x3f72936e	0.9475621
246	0xbf066c9d	-0.5250948
247	0x3e6f7099	0.23382796
248	0x3f29f507	0.6638951
249	0x3fc219f9	1.5164176
250	0xbf571fbc	-0.840328
251	0x3ebf9792	0.37420326
252	0x3f837762	1.0270808
253	0x40162481	2.345978
254	0xbfa66771	-1.3000318
255	0x3f143398	0.57891226

input_layer.bias_epsilon f4 [64]
0	0xbf2ce120	-0.67531013
1	0xbe7ecba3	-0.24882369
2	0xbef1572a	-0.47136813
3	0xbf8eef27	-1.1166734
4	0xbf328093	-0.6972744
5	0xbf146409	-0.5796514
6	0x3e443686	0.19161424
7	0x3f33d235	0.70242625
8	0x3edcac7b	0.43100342
9	0xbf7c1aa9	-0.9847818
10	0x3fb01e1f	1.3759192
11	0x3f2ab6ab	0.6668498
12	0x3ebd128d	0.36928216
13	0x3f0e424d	0.55569917
14	0x3fa4ffec	1.2890601
15	0x3ed6425e	0.4184751
16	0x3f127598	0.57210684
17	0x3eb80ca6	0.3594715
18	0x3fd829ea	1.6887791
19	0xbf5cbfff	-0.8623046
20	0x3ee24ee7	0.44200823
21	0xbf93e57b	-1.1554407
22	0x3f20cb58	0.6281028
23	0x3fa73026	1.3061569
24	0xbf0ddf7b	-0.5541913
25	0xbf588aee	-0.8458699
26	0x3e8d4dc8	0.27598405
27	0xbeec22e9	-0.46120384
28	0xbf40a3eb	-0.7525012
29	0x3f21b0b4	0.6316025
30	0x3f95cad6	1.1702526
31	0xbf007bb6	-0.5018877
32	0x3f6bb94a	0.92079604
33	0xbf55787a	-0.8338696
34	0x3f0d8604	0.55282617
35	0x3f0a1355	0.5393575
36	0x3f23a0f4	0.6391747
37	0xbf8fbba1	-1.1229135
38	0x3f7514c3	0.95734805
39	0xbe2b5ddb	-0.16735022
40	0x3ed86c88	0.42270303
41	0xbe48f0b3	-0.1962307
42	0xbe96eac5	-0.2947599
43	0xbf8b0f62	-1.086407
44	0x3f9f27b4	1.2433991
45	0x3f3cf280	0.73807526
46	0x3f7f295b	0.9967248
47	0x3f363913	0.7118084
48	0xbf93e5d1	-1.1554509
49	0x3fa4801d	1.2851597
50	0x3fb4285f	1.407482
51	0xbea5be42	-0.32371718
52	0x3f3340a4	0.7002051
53	0xbf29524c	-0.661412
54	0xbf8d6317	-1.1045865
55	0xbf43df30	-0.7651243
56	0xbe7897c6	-0.24276647
57	0xbf31881d	-0.6934832
58	0x3f7f2580	0.99666595
59	0x3f04e6aa	0.51914465
60	0xbfad3b73	-1.3533767
61	0x3f18f51f	0.59749025
62	0x3f74c88b	0.95618504
63	0x3fbd58ae	1.4792688

input_norm.weight f4 [64]
0	0x3f800000	1.0
1	0x3f800000	1.0
2	0x3f800000	1.0
3	0x3f800000	1.0
4	0x3f800000	1.0
5	0x3f800000	1.0
6	0x3f800000	1.0
7	0x3f800000	1.0
8	0x3f800000	1.0
9	0x3f800000	1.0
10	0x3f800000	1.0
11	0x3f800000	1.0
12	0x3f800000	1.0
13	0x3f800000	1.0
14	0x3f800000	1.0
15	0x3f800000	1.0
16	0x3f800000	1.0
17	0x3f800000	1.0
18	0x3f800000	1.0
19	0x3f800000	1.0
20	0x3f800000	1.0
21	0x3f800000	1.0
22	0x3f800000	1.0
23	0x3f800000	1.0
24	0x3f800000	1.0
25	0x3f800000	1.0
26	0x3f800000	1.0
27	0x3f800000	1.0
28	0x3f800000	1.0
29	0x3f800000	1.0
30	0x3f800000	1.0
31	0x3f800000	1.0
32	0x3f800000	1.0
33	0x3f800000	1.0
34	0x3f800000	1.0
35	0x3f800000	1.0
36	0x3f800000	1.0
37	0x3f800000	1.0
38	0x3f800000	1.0
39	0x3f800000	1.0
40	0x3f800000	1.0
41	0x3f800000	1.0
42	0x3f800000	1.0
43	0x3f800000	1.0
44	0x3f800000	1.0
45	0x3f800000	1.0
46	0x3f800000	1.0
47	0x3f800000	1.0
48	0x3f800000	1.0
49	0x3f800000	1.0
50	0x3f800000	1.0
51	0x3f800000	1.0
52	0x3f800000	1.0
53	0x3f800000	1.0
54	0x3f800000	1.0
55	0x3f800000	1.0
56	0x3f800000	1.0
57	0x3f800000	1.0
58	0x3f800000	1.0
59	0x3f800000	1.0
60	0x3f800000	1.0
61	0x3f800000	1.0
62	0x3f800000	1.0
63	0x3f800000	1.0

input_norm.bias f4 [64]
0	0x00000000	0.0
1	0x00000000	0.0
2	0x00000000	0.0
3	0x00000000	0.0
4	0x00000000	0.0
5	0x00000000	0.0
6	0x00000000	0.0
7	0x00000000	0.0
8	0x00000000	0.0
9	0x00000000	0.0
10	0x00000000	0.0
11	0x00000000	0.0
12	0x00000000	0.0
13	0x00000000	0.0
14	0x00000000	0.0
15	0x00000000	0.0
16	0x00000000	0.0
17	0x00000000	0.0
18	0x00000000	0.0
19	0x00000000	0.0
20	0x00000000	0.0
21	0x00000000	0.0
22	0x00000000	0.0
23	0x00000000	0.0
24	0x00000000	0.0
25	0x00000000	0.0
26	0x00000000	0.0
27	0x00000000	0.0
28	0x00000000	0.0
29	0x00000000	0.0
30	0x00000000	0.0
31	0x00000000	0.0
32	0x00000000	0.0
33	0x00000000	0.0
34	0x00000000	0.0
35	0x00000000	0.0
36	0x00000000	0.0
37	0x00000000	0.0
38	0x00000000	0.0
39	0x00000000	0.0
40	0x00000000	0.0
41	0x00000000	0.0
42	0x00000000	0.0
43	0x00000000	0.0
44	0x00000000	0.0
45	0x00000000	0.0
46	0x00000000	0.0
47	0x00000000	0.0
48	0x00000000	0.0
49	0x00000000	0.0
50	0x00000000	0.0
51	0x00000000	0.0
52	0x00000000	0.0
53	0x00000000	0.0
54	0x00000000	0.0
55	0x00000000	0.0
56	0x00000000	0.0
57	0x00000000	0.0
58	0x00000000	0.0
59	0x00000000	0.0
60	0x00000000	0.0
61	0x00000000	0.0
62	0x00000000	0.0
63	0x00000000	0.0

res_blocks.0.main.0.weight_mu f4 [32, 64]
0	0x3db0765e	0.08616327
1	0x3d7b233c	0.0613129
2	0x3d241208	0.04005626
3	0xbd8fdcda	-0.07024546
4	0xbdcfced2	-0.1014687
5	0x3c5d8350	0.013520077
6	0x3d17b1dc	0.037034854
7	0xbd6c6580	-0.057713985
8	0xbd0f41a4	-0.03497471
9	0x3dace4e6	0.084420964
10	0x3c2324a0	0.009957463
11	0x3bb8ce00	0.0056397915
12	0xbcfc01c8	-0.030762568
13	0xbde7d4ba	-0.11319871
14	0xbdf0b4b6	-0.11753218
15	0xbd74be64	-0.059751883
16	0xbd82215a	-0.063540176
17	0x3d1f83f4	0.0389442
18	0xbd150c78	-0.036388844
19	0xbd484e44	-0.048902765
20	0x3df413fa	0.11917873
21	0x3d325760	0.04354036
22	0x3db680c4	0.08911279
23	0xbd77dda0	-0.060514092
24	0xbd512290	-0.051058352
25	0x3d3c2e44	0.04594256
26	0xbdaa9102	-0.08328439
27	0xbda75926	-0.081713006
28	0xbbc5d5e0	-0.006037459
29	0xbd3b44fc	-0.045720086
30	0xbdbfe996	-0.09370725
31	0x3d97d944	0.07414487
32	0x3dcddd9e	0.10052036
33	0x3ca61de0	0.020277917
34	0xbcb24ac0	-0.02176416
35	0xbded203a	-0.11578412
36	0xbd3a7d80	-0.045529842
37	0x3d02590c	0.031823203
38	0x3d716c80	0.058941364
39	0xbc817398	-0.01580219
40	0xbd4a6bb0	-0.049419105
41	0x3d8ea65e	0.06965326
42	0xbdcbe0da	-0.099549964
43	0x3da1cbee	0.079002246
44	0xbd46a204	-0.048494354
45	0x3afac380	0.001913175
46	0xbcca5bd0	-0.024701983
47	0x3c784c20	0.015154868
48	0xbd1ab9c0	-0.0377748
49	0x3dba24fe	0.09089087
50	0xbb54f800	-0.0032496452
51	0x3dc7d55e	0.097574934
52	0x3df62396	0.12018506
53	0xbd797118	-0.06089887
54	0xbdbac11c	-0.09118864
55	0x3dcd63aa	0.10028775
56	0x3dc89aec	0.09795174
57	0xbdc377d6	-0.09544341
58	0xbc1e5130	-0.009662911
59	0xbdfc72c6	-0.12326579
60	0xbdd18fb6	-0.10232489
61	0x3cc5c728	0.024142817
62	0x3d0835b0	0.033254325
63	0x3cd91190	0.026497632
64	0xbd0b592c	-0.034020588
65	0x3dec2e0e	0.11532222
66	0x3c9268d0	0.017872244
67	0xbd970fcc	-0.0737606
68	0xbbe7e3e0	-0.0070767254
69	0x3cf5e8a0	0.03001815
70	0x3d334c74	0.043774083
71	0xbdb50340	-0.088385105
72	0x3d3fe46c	0.0468487
73	0xbd82c924	-0.06386021
74	0xbdd4b882	-0.103867546
75	0xbd8bd440	-0.06827593
76	0x3df6e388	0.12055117
77	0x3ddad7f6	0.106857225
78	0x3de53e78	0.111935556
79	0x3d96465e	0.0733764
80	0x3dc16524	0.09443119
81	0xbc890fe8	-0.016731218
82	0xbd8cdbbc	-0.068778485
83	0x3d7fd2fc	0.06245707
84	0xbd84a7a0	-0.064772844
85	0xbdacc402	-0.08435823
86	0xbd237fc0	-0.039916754
87	0x3cd6e558	0.026232406
88	0x3d83c9b6	0.06434958
89	0xbd46dd8c	-0.048551127
90	0xbd96ac48	-0.07357079
91	0x3c8a2168	0.016861632
92	0xbd96e518	-0.07367915
93	0xbda6abf6	-0.08138268
94	0x3d8570c4	0.06515649
95	0xbcac0428	-0.020998076
96	0x3de9edd0	0.11422312
97	0x3df90848	0.12159783
98	0x3d19245c	0.03738819
99	0x3d303570	0.043019712
100	0x3cebcf80	0.028785467
101	0x3b004b40	0.0019576102
102	0xbc14f4c0	-0.009091556
103	0x3ae12f00	0.0017180145
104	0x3d3f3188	0.046678096
105	0x3dee0576	0.11622135
106	0xbd04b080	-0.032394886
107	0xbd586e34	-0.052839473
108	0xbcf7fa10	-0.030270606
109	0xbd775c10	-0.060390532
110	0x3cae1ea0	0.021254838
111	0x3dbf173e	0.09330605
112	0x3dc82fac	0.09774718
113	0x3d6b1280	0.05739069
114	0xbdbc6602	-0.09199144
115	0xbd89657c	-0.0670881
116	0xbce0fc08	-0.027463928
117	0xbcbcbf78	-0.023040518
118	0x3c287180	0.010280967
119	0xbdeb002e	-0.11474644
120	0x3d1f5b78	0.03890559
121	0xbdc34b96	-0.09535901
122	0xbda1fb8e	-0.079093084
123	0xbdd4d57c	-0.103922814
124	0x3ddf0ece	0.10891496
125	0xbdf26aa6	-0.11836748
126	0x3dc11e2e	0.094295844
127	0xbb89b1e0	-0.0042021126
128	0xbc6e2e10	-0.014537349
129	0x3da01f5c	0.07818481
130	0xbc3d4ab0	-0.011553451
131	0x3da08d2c	0.078394264
132	0x3db91782	0.09037687
133	0xbdde4304	-0.10852626
134	0x3d450268	0.048097998
135	0x3cc14f48	0.023597375
136	0x3cdc2c08	0.026876464
137	0x3c957ec8	0.01824893
138	0x3d0c0c40	0.03419137
139	0xbd764e64	-0.060133353
140	0xbc830300	-0.015992641
141	0x3df33b10	0.118765
142	0x3dabfe54	0.083981186
143	0xbb99e160	-0.0046960562
144	0xbdf0c6a2	-0.11756636
145	0x3bb384c0	0.0054784715
146	0xbdae5448	-0.08512169
147	0x3dd02d52	0.10164894
148	0xbd9b6a14	-0.07588592
149	0xbc13de70	-0.009025201
150	0xbce344f0	-0.027742833
151	0x3cb63988	0.02224423
152	0x3df0e730	0.117628455
153	0x3c429970	0.011877403
154	0x3d944418	0.0723955
155	0x3dc6b676	0.097027704
156	0x3dceabf2	0.1009139
157	0xbd30d1e8	-0.043168932
158	0xbce50640	-0.027957082
159	0x3d76c08c	0.06024222
160	0xbd0bb550	-0.03410846
161	0x3d6fc04c	0.058532998
162	0xbcdfb600	-0.027308464
163	0xbdada1f2	-0.08478154
164	0x3d5067fc	0.050880417
165	0x3c9cff68	0.019164756
166	0x3d64463c	0.055731043
167	0x3dfe551a	0.124185756
168	0x3daec796	0.08534162
169	0x3df2aee4	0.11849764
170	0x3bdb3ac0	0.006690353
171	0xbddc36e4	-0.10752657
172	0xbdb3974a	-0.087690905
173	0xbd9f053e	-0.07764672
174	0xbde1997e	-0.110156044
175	0xbd8051c2	-0.06265594
176	0xbdebaa54	-0.11507097
177	0xbdec3084	-0.11532691
178	0xbd98f956	-0.07469432
179	0xbdfc5f9c	-0.123229235
180	0xbd9d22d0	-0.076726556
181	0x3d433ae4	0.047663584
182	0x3dd5847c	0.1042566
183	0xbd184d0c	-0.037182853
184	0xbd14ee10	-0.036359847
185	0x3d88b12a	0.06674416
186	0xbd7c9b1c	-0.06167136
187	0xbd72171c	-0.05910407
188	0x3d9dbaaa	0.07701619
189	0xbddf0da0	-0.10891271
190	0x3c7a6b30	0.015284345
191	0x3de22552	0.110422745
192	0x3caf9a28	0.021435812
193	0x3d0b3c38	0.033992976
194	0xbd951796	-0.07279889
195	0xbae20b00	-0.001724571
196	0x3be13760	0.0068730563
197	0x3cfb5320	0.030679286
198	0x3d46ef80	0.04856825
199	0x3dde720e	0.10861598
200	0xbdc36798	-0.09541243
201	0x3b758ec0	0.0037469119
202	0xbd7fd054	-0.062454537
203	0xbdca832a	-0.09888299
204	0xbc23ffc0	-0.010009706
205	0xbde15734	-0.11002961
206	0x3db2a986	0.0872374
207	0x3c6d3050	0.014476851
208	0xbd89f928	-0.06736976
209	0x3d85c7be	0.065322384
210	0xbdf2491a	-0.11830349
211	0xbd460a8c	-0.048349902
212	0xbcc77e90	-0.024352342
213	0xbdd9893c	-0.106218785
214	0xbda2c994	-0.07948604
215	0xbca722c8	-0.020402327
216	0x3dc23e66	0.09484558
217	0x3df7351e	0.12070678
218	0x3da2e218	0.0795328
219	0xbd98dd1e	-0.0746405
220	0xbda77b0a	-0.08177765
221	0x3ddf68d2	0.10908665
222	0x3d351a74	0.04421468
223	0x3b59a480	0.0033209622
224	0x3c8a9480	0.016916513
225	0xbdcdbf12	-0.100462094
226	0xbd2af308	-0.04173568
227	0x3df66e24	0.120327264
228	0xbcfc8d28	-0.030829027
229	0xbbcd78e0	-0.006270513
230	0xbdd49094	-0.103791386
231	0xbd8f354e	-0.06992589
232	0xbb274700	-0.0025524497
233	0xbd9f044e	-0.07764493
234	0xbc7df8c0	-0.015501201
235	0x3d505cf4	0.050869897
236	0xbdfa69d4	-0.12227216
237	0x3d1811f8	0.03712651
238	0xbda944f0	-0.08265102
239	0xbd79e1d4	-0.061006382
240	0x3d448fd0	0.047988713
241	0x3dcb8d00	0.09939003
242	0xbd0bef1c	-0.03416358
243	0xbd52361c	-0.051321134
244	0xbde77c00	-0.11302948
245	0xbd840224	-0.06445721
246	0xbde029be	-0.10945462
247	0xbcea5d08	-0.028608814
248	0x3cd0f3e8	0.025506929
249	0xbdefd716	-0.11710946
250	0x3ddf845e	0.10913919
251	0x3da09cb0	0.07842386
252	0xbdfa9c32	-0.12236823
253	0xbd748c50	-0.059704125
254	0x3d26fdd0	0.0407694
255	0xbcd26400	-0.02568245

res_blocks.0.main.0.weight_sigma f4 [32, 64]
0	0x3d800000	0.0625
1	0x3d800000	0.0625
2	0x3d800000	0.0625
3	0x3d800000	0.0625
4	0x3d800000	0.0625
5	0x3d800000	0.0625
6	0x3d800000	0.0625
7	0x3d800000	0.0625
8	0x3d800000	0.0625
9	0x3d800000	0.0625
10	0x3d800000	0.0625
11	0x3d800000	0.0625
12	0x3d800000	0.0625
13	0x3d800000	0.0625
14	0x3d800000	0.0625
15	0x3d800000	0.0625
16	0x3d800000	0.0625
17	0x3d800000	0.0625
18	0x3d800000	0.0625
19	0x3d800000	0.0625
20	0x3d800000	0.0625
21	0x3d800000	0.0625
22	0x3d800000	0.0625
23	0x3d800000	0.0625
24	0x3d800000	0.0625
25	0x3d800000	0.0625
26	0x3d800000	0.0625
27	0x3d800000	0.0625
28	0x3d800000	0.0625
29	0x3d800000	0.0625
30	0x3d800000	0.0625
31	0x3d800000	0.0625
32	0x3d800000	0.0625
33	0x3d800000	0.0625
34	0x3d800000	0.0625
35	0x3d800000	0.0625
36	0x3d800000	0.0625
37	0x3d800000	0.0625
38	0x3d800000	0.0625
39	0x3d800000	0.0625
40	0x3d800000	0.0625
41	0x3d800000	0.0625
42	0x3d800000	0.0625
43	0x3d800000	0.0625
44	0x3d800000	0.0625
45	0x3d800000	0.0625
46	0x3d800000	0.0625
47	0x3d800000	0.0625
48	0x3d800000	0.0625
49	0x3d800000	0.0625
50	0x3d800000	0.0625
51	0x3d800000	0.0625
52	0x3d800000	0.0625
53	0x3d800000	0.0625
54	0x3d800000	0.0625
55	0x3d800000	0.0625
56	0x3d800000	0.0625
57	0x3d800000	0.0625
58	0x3d800000	0.0625
59	0x3d800000	0.0625
60	0x3d800000	0.0625
61	0x3d800000	0.0625
62	0x3d800000	0.0625
63	0x3d800000	0.0625
64	0x3d800000	0.0625
65	0x3d800000	0.0625
66	0x3d800000	0.0625
67	0x3d800000	0.0625
68	0x3d800000	0.0625
69	0x3d800000	0.0625
70	0x3d800000	0.0625
71	0x3d800000	0.0625
72	0x3d800000	0.0625
73	0x3d800000	0.0625
74	0x3d800000	0.0625
75	0x3d800000	0.0625
76	0x3d800000	0.0625
77	0x3d800000	0.0625
78	0x3d800000	0.0625
79	0x3d800000	0.0625
80	0x3d800000	0.0625
81	0x3d800000	0.0625
82	0x3d800000	0.0625
83	0x3d800000	0.0625
84	0x3d800000	0.0625
85	0x3d800000	0.0625
86	0x3d800000	0.0625
87	0x3d800000	0.0625
88	0x3d800000	0.0625
89	0x3d800000	0.0625
90	0x3d800000	0.0625
91	0x3d800000	0.0625
92	0x3d800000	0.0625
93	0x3d800000	0.0625
94	0x3d800000	0.0625
95	0x3d800000	0.0625
96	0x3d800000	0.0625
97	0x3d800000	0.0625
98	0x3d800000	0.0625
99	0x3d800000	0.0625
100	0x3d800000	0.0625
101	0x3d800000	0.0625
102	0x3d800000	0.0625
103	0x3d800000	0.0625
104	0x3d800000	0.0625
105	0x3d800000	0.0625
106	0x3d800000	0.0625
107	0x3d800000	0.0625
108	0x3d800000	0.0625
109	0x3d800000	0.0625
110	0x3d800000	0.0625
111	0x3d800000	0.0625
112	0x3d800000	0.0625
113	0x3d800000	0.0625
114	0x3d800000	0.0625
115	0x3d800000	0.0625
116	0x3d800000	0.0625
117	0x3d800000	0.0625
118	0x3d800000	0.0625
119	0x3d800000	0.0625
120	0x3d800000	0.0625
121	0x3d800000	0.0625
122	0x3d800000	0.0625
123	0x3d800000	0.0625
124	0x3d800000	0.0625
125	0x3d800000	0.0625
126	0x3d800000	0.0625
127	0x3d800000	0.0625
128	0x3d800000	0.0625
129	0x3d800000	0.0625
130	0x3d800000	0.0625
131	0x3d800000	0.0625
132	0x3d800000	0.0625
133	0x3d800000	0.0625
134	0x3d800000	0.0625
135	0x3d800000	0.0625
136	0x3d800000	0.0625
137	0x3d800000	0.0625
138	0x3d800000	0.0625
139	0x3d800000	0.0625
140	0x3d800000	0.0625
141	0x3d800000	0.0625
142	0x3d800000	0.0625
143	0x3d800000	0.0625
144	0x3d800000	0.0625
145	0x3d800000	0.0625
146	0x3d800000	0.0625
147	0x3d800000	0.0625
148	0x3d800000	0.0625
149	0x3d800000	0.0625
150	0x3d800000	0.0625
151	0x3d800000	0.0625
152	0x3d800000	0.0625
153	0x3d800000	0.0625
154	0x3d800000	0.0625
155	0x3d800000	0.0625
156	0x3d800000	0.0625
157	0x3d800000	0.0625
158	0x3d800000	0.0625
159	0x3d800000	0.0625
160	0x3d800000	0.0625
161	0x3d800000	0.0625
162	0x3d800000	0.0625
163	0x3d800000	0.0625
164	0x3d800000	0.0625
165	0x3d800000	0.0625
166	0x3d800000	0.0625
167	0x3d800000	0.0625
168	0x3d800000	0.0625
169	0x3d800000	0.0625
170	0x3d800000	0.0625
171	0x3d800000	0.0625
172	0x3d800000	0.0625
173	0x3d800000	0.0625
174	0x3d800000	0.0625
175	0x3d800000	0.0625
176	0x3d800000	0.0625
177	0x3d800000	0.0625
178	0x3d800000	0.0625
179	0x3d800000	0.0625
180	0x3d800000	0.0625
181	0x3d800000	0.0625
182	0x3d800000	0.0625
183	0x3d800000	0.0625
184	0x3d800000	0.0625
185	0x3d800000	0.0625
186	0x3d800000	0.0625
187	0x3d800000	0.0625
188	0x3d800000	0.0625
189	0x3d800000	0.0625
190	0x3d800000	0.0625
191	0x3d800000	0.0625
192	0x3d800000	0.0625
193	0x3d800000	0.0625
194	0x3d800000	0.0625
195	0x3d800000	0.0625
196	0x3d800000	0.0625
197	0x3d800000	0.0625
198	0x3d800000	0.0625
199	0x3d800000	0.0625
200	0x3d800000	0.0625
201	0x3d800000	0.0625
202	0x3d800000	0.0625
203	0x3d800000	0.0625
204	0x3d800000	0.0625
205	0x3d800000	0.0625
206	0x3d800000	0.0625
207	0x3d800000	0.0625
208	0x3d800000	0.0625
209	0x3d800000	0.0625
210	0x3d800000	0.0625
211	0x3d800000	0.0625
212	0x3d800000	0.0625
213	0x3d800000	0.0625
214	0x3d800000	0.0625
215	0x3d800000	0.0625
216	0x3d800000	0.0625
217	0x3d800000	0.0625
218	0x3d800000	0.0625
219	0x3d800000	0.0625
220	0x3d800000	0.0625
221	0x3d800000	0.0625
222	0x3d800000	0.0625
223	0x3d800000	0.0625
224	0x3d800000	0.0625
225	0x3d800000	0.0625
226	0x3d800000	0.0625
227	0x3d800000	0.0625
228	0x3d800000	0.0625
229	0x3d800000	0.0625
230	0x3d800000	0.0625
231	0x3d800000	0.0625
232	0x3d800000	0.0625
233	0x3d800000	0.0625
234	0x3d800000	0.0625
235	0x3d800000	0.0625
236	0x3d800000	0.0625
237	0x3d800000	0.0625
238	0x3d800000	0.0625
239	0x3d800000	0.0625
240	0x3d800000	0.0625
241	0x3d800000	0.0625
242	0x3d800000	0.0625
243	0x3d800000	0.0625
244	0x3d800000	0.0625
245	0x3d800000	0.0625
246	0x3d800000	0.0625
247	0x3d800000	0.0625
248	0x3d800000	0.0625
249	0x3d800000	0.0625
250	0x3d800000	0.0625
251	0x3d800000	0.0625
252	0x3d800000	0.0625
253	0x3d800000	0.0625
254	0x3d800000	0.0625
255	0x3d800000	0.0625

res_blocks.0.main.0.bias_mu f4 [32]
0	0xbca1a580	-0.019732237
1	0x3cb56be8	0.02214618
2	0x3d2eebac	0.042705223
3	0xbdf92492	-0.12165178
4	0x3d35f96c	0.04442732
5	0xbd96f848	-0.07371575
6	0x3c8680a0	0.016418755
7	0x3dad325c	0.08456871
8	0xbc4c0310	-0.012451902
9	0xbb819380	-0.003954351
10	0xbc190460	-0.009339422
11	0x3dd5a0a6	0.10431032
12	0x3d917e0a	0.07104118
13	0x3cac3490	0.021021158
14	0xbd9a1090	-0.0752269
15	0xbd8b0478	-0.06787962
16	0x3dcbeb04	0.09956935
17	0x3db82bf4	0.089927584
18	0x3d943a00	0.07237625
19	0xbdc79b8e	-0.097464666
20	0x3dc75ef6	0.09734909
21	0xbc43c5b0	-0.011948988
22	0x3dbc9c1c	0.09209463
23	0x3dde5942	0.10856868
24	0x3c607bc0	0.013701379
25	0xbd550d78	-0.052014798
26	0x3df0ce7e	0.11758135
27	0xbd856820	-0.06514001
28	0x3da74630	0.08167684
29	0xbdf579d2	-0.11986126
30	0xbd2107d4	-0.039314106
31	0xbddf31de	-0.10898183

res_blocks.0.main.0.bias_sigma f4 [32]
0	0x3db504f3	0.088388346
1	0x3db504f3	0.088388346
2	0x3db504f3	0.088388346
3	0x3db504f3	0.088388346
4	0x3db504f3	0.088388346
5	0x3db504f3	0.088388346
6	0x3db504f3	0.088388346
7	0x3db504f3	0.088388346
8	0x3db504f3	0.088388346
9	0x3db504f3	0.088388346
10	0x3db504f3	0.088388346
11	0x3db504f3	0.088388346
12	0x3db504f3	0.088388346
13	0x3db504f3	0.088388346
14	0x3db504f3	0.088388346
15	0x3db504f3	0.088388346
16	0x3db504f3	0.088388346
17	0x3db504f3	0.088388346
18	0x3db504f3	0.088388346
19	0x3db504f3	0.088388346
20	0x3db504f3	0.088388346
21	0x3db504f3	0.088388346
22	0x3db504f3	0.088388346
23	0x3db504f3	0.088388346
24	0x3db504f3	0.088388346
25	0x3db504f3	0.088388346
26	0x3db504f3	0.088388346
27	0x3db504f3	0.088388346
28	0x3db504f3	0.088388346
29	0x3db504f3	0.088388346
30	0x3db504f3	0.088388346
31	0x3db504f3	0.088388346

res_blocks.0.main.0.weight_epsilon f4 [32, 64]
0	0x3f2e3e85	0.6806415
1	0x3f57e095	0.8432706
2	0xbed3c182	-0.41358572
3	0x3ed06b53	0.40706882
4	0x3f82d98a	1.0222638
5	0xbf71cbe0	-0.94451714
6	0x3e9a8930	0.3018279
7	0xbe805dea	-0.2507165
8	0xbf36a0c0	-0.71339035
9	0xbf894b6d	-1.0726143
10	0x3f2a271e	0.6646594
11	0xbf061b9a	-0.52385867
12	0xbf939e59	-1.1532699
13	0xbf89c7c1	-1.0764085
14	0xbf7f9508	-0.9983678
15	0x3f315c9b	0.6928193
16	0x3eb8330a	0.3597644
17	0x3f2d1e8c	0.67624736
18	0xbf31a61d	-0.69394094
19	0x3fc55244	1.541573
20	0xbf7ede4d	-0.99557954
21	0x3eec61aa	0.46168262
22	0x3e9d2578	0.3069265
23	0x3f1a2aa6	0.60221326
24	0x3fa1405e	1.2597768
25	0x3f813bf8	1.0096426
26	0x3f40401f	0.7509784
27	0xbf14f9e7	-0.5819382
28	0x3f460b15	0.7736066
29	0xbf56841e	-0.83795345
30	0xbf5ea07a	-0.8696362
31	0xbf69a64c	-0.91269374
32	0x3ea8a505	0.329384
33	0x3e497c14	0.19676238
34	0xbec96e0d	-0.39341775
35	0xbf2d5359	-0.67705303
36	0x3f77fc31	0.9686919
37	0xbee4de1c	-0.44700706
38	0xbf3525f5	-0.7076104
39	0x3fb32774	1.3996415
40	0xbedc5b01	-0.4303818
41	0x3f396ce2	0.72431767
42	0x3eef254d	0.46708146
43	0xbf6c164b	-0.92221516
44	0xbf1f9e41	-0.6235085
45	0x3f64e2b6	0.89408433
46	0x3e612919	0.21988334
47	0xbf67cb20	-0.9054432
48	0xbfa62778	-1.2980795
49	0xbf1d4509	-0.61433464
50	0x3f36afaa	0.7136179
51	0xbf4929a4	-0.78579164
52	0x3f772528	0.9654107
53	0x3ecf6a3e	0.40510744
54	0xbf5611b7	-0.8362078
55	0x3f5704be	0.8399161
56	0x3f04a1e7	0.51809543
57	0x3ecae660	0.39628887
58	0x3ec828e2	0.3909369
59	0xbfaad79b	-1.3347048
60	0xbeb6dd6f	-0.35715815
61	0xbfd3a69b	-1.6535219
62	0x3f64f18b	0.89431065
63	0x3ea4a297	0.32155296
64	0x3f642b21	0.8912831
65	0x3f8d57cc	1.1042418
66	0xbf0aa501	-0.54158026
67	0x3f0875bc	0.5330465
68	0x3fab5832	1.338629
69	0xbf9e502c	-1.2368217
70	0x3eca5c64	0.39523613
71	0xbea817dc	-0.32830703
72	0xbf6f2590	-0.9341669
73	0xbfb3c8ae	-1.4045618
74	0x3f5ecf95	0.87035495
75	0xbf2f9c61	-0.6859799
76	0xbfc14d85	-1.5101782
77	0xbfb46b7c	-1.4095302
78	0xbfa756d8	-1.3073378
79	0x3f684033	0.9072296
80	0x3ef13459	0.4711025
81	0x3f62b209	0.8855291
82	0xbf68a075	-0.9086984
83	0x40013196	2.0186515
84	0xbfa6df35	-1.3036867
85	0x3f1ac492	0.6045619
86	0x3ecdc77d	0.4019126
87	0x3f49e098	0.7885833
88	0x3fd3279e	1.6496465
89	0x3fa93aa3	1.322102
90	0x3f7bbf49	0.98338753
91	0xbf4314a2	-0.7620336
92	0x3f81aa98	1.0130186
93	0xbf8c73a5	-1.0972792
94	0xbf91c31e	-1.138767
95	0xbf98faab	-1.1951498
96	0x3edcd5ff	0.43132016
97	0x3e83eb6a	0.25765544
98	0xbf03e23b	-0.51517075
99	0xbf62f72d	-0.8865841
100	0x3fa25d7c	1.2684779
101	0xbf15d925	-0.5853446
102	0xbf6d358c	-0.9265983
103	0x3fea990e	1.8327959
104	0xbf104668	-0.5635743
105	0x3f72cf53	0.948476
106	0x3f1c93e2	0.6116315
107	0xbf9a9339	-1.2076179
108	0xbf51041b	-0.8164689
109	0x3f95dc28	1.1707811
110	0x3e936bcb	0.28793177
111	0xbf97c38e	-1.1856554
112	0xbfd99323	-1.6998028
113	0xbf4df0d3	-0.80445594
114	0x3f6f3918	0.93446493
115	0xbf83b570	-1.0289745
116	0x3fa1d0b2	1.2641814
117	0x3f07cd6a	0.5304781
118	0xbf8c28be	-1.0949934
119	0x3f8cc7dc	1.0998492
120	0x3f2dadcb	0.6784331
121	0x3f04d8a0	0.51893044
122	0x3f030d55	0.5119222
123	0xbfdfb6b0	-1.7477627
124	0xbeef7507	-0.46768972
125	0xc00a9363	-2.1652458
126	0x3f95e5de	1.1710775
127	0x3ed795e9	0.4210656
128	0xbf3525dc	-0.70760894
129	0xbf606e33	-0.8766815
130	0x3edc2553	0.42997226
131	0xbed8ad4c	-0.42319715
132	0xbf8808bc	-1.0627666
133	0x3f7b6063	0.9819395
134	0xbea0a8a0	-0.3137865
135	0x3e8573ed	0.26065007
136	0x3f3ddd1f	0.7416553
137	0x3f8ebbfd	1.115112
138	0xbf30e4f5	-0.6909936
139	0x3f0b6bd7	0.54461426
140	0x3f9977a0	1.1989632
141	0x3f8f3d3f	1.1190566
142	0x3f84dab0	1.0379238
143	0xbf386390	-0.7202692
144	0xbebf7f5a	-0.3740185
145	0xbf33fa7a	-0.7030407
146	0x3f38affc	0.7214353
147	0xbfcd23ac	-1.6026511
148	0x3f847bb4	1.0350251
149	0xbef5bf41	-0.47997478
150	0xbea35f63	-0.31908712
151	0xbf204657	-0.6260733
152	0xbfa7a3ec	-1.30969
153	0xbf865ac7	-1.0496453
154	0xbf47de18	-0.78073263
155	0x3f1ae0f3	0.60499495
156	0xbf4de3d0	-0.8042574
157	0x3f5f03ee	0.8711537
158	0x3f67728e	0.9040917
159	0x3f72e82d	0.9488552
160	0xbeaf5390	-0.3424344
161	0xbe5177b7	-0.20455824
162	0x3ed16921	0.4090052
163	0x3f34315e	0.7038783
164	0xbf80e7bd	-1.0070721
165	0x3eedef7d	0.46471778
166	0x3f3c5353	0.7356464
167	0xbfba4098	-1.4550962
168	0x3ee5160c	0.44743383
169	0xbf40c5a2	-0.75301564
170	0xbef89eed	-0.4855875
171	0x3f7570e6	0.95875394
172	0x3f25f13e	0.6482123
173	0xbf6df445	-0.9295085
174	0xbe6a14e0	-0.22859526
175	0x3f70fa2d	0.9413174
176	0x3facbcc0	1.3495102
177	0x3f238034	0.638675
178	0xbf3deca1	-0.7418919
179	0x3f512202	0.81692517
180	0xbf8077f6	-1.0036609
181	0xbed7a207	-0.42115805
182	0x3f5e8cff	0.8693389
183	0xbf5f89a6	-0.8731941
184	0xbf09e32e	-0.53862274
185	0xbed2f05d	-0.41199008
186	0xbed01714	-0.40642607
187	0x3fb19c70	1.3875866
188	0x3ebe1c36	0.37130898
189	0x3fdc095a	1.7190354
190	0xbf6e03b0	-0.92974377
191	0xbeab2877	-0.3342931
192	0x3f0ccbb9	0.54998356
193	0x3f2e6fd4	0.68139386
194	0xbeab1b4b	-0.3341926
195	0x3ea86915	0.3289267
196	0x3f537682	0.82602704
197	0xbf436164	-0.7632048
198	0x3e79bdcf	0.24388812
199	0xbe4f734a	-0.20258823
200	0xbf1391f4	-0.5764458
201	0xbf5de0d8	-0.8667121
202	0x3f097d62	0.53706944
203	0xbed8ba6a	-0.42329723
204	0xbf6e9001	-0.9318848
205	0xbf5ea9c5	-0.869778
206	0xbf4e8515	-0.8067182
207	0x3f0f509a	0.55982363
208	0x3e94d705	0.29070297
209	0x3f0be308	0.546433
210	0xbf0f8c00	-0.56073
211	0x3f9f7166	1.2456481
212	0xbf4df16e	-0.8044652
213	0x3ebf0149	0.37305668
214	0x3e7df5ce	0.24800798
215	0x3ef92507	0.48661062
216	0x3f824c11	1.0179464
217	0x3f50da26	0.8158287
218	0x3f1b5873	0.6068184
219	0xbef0c1ad	-0.47022763
220	0x3f2006bd	0.6251028
221	0xbf2d5642	-0.67709744
222	0xbf33e409	-0.7026983
223	0xbf3ccc2b	-0.73749036
224	0x3e884566	0.26615447
225	0x3e22ce9e	0.1589913
226	0xbea2c348	-0.31789613
227	0xbf0c0db1	-0.5470839
228	0x3f486194	0.7827389
229	0xbeb8eefb	-0.36119828
230	0xbf125fe1	-0.5717755
231	0x3f90c35f	1.1309623
232	0xbeb20e2f	-0.34776446
233	0x3f15d49e	0.58527553
234	0x3ec13d14	0.3774191
235	0xbf3ec462	-0.74518406
236	0xbf00fa37	-0.503818
237	0x3f38f2b2	0.72245324
238	0x3e35f025	0.17767389
239	0xbf3b4c36	-0.73163164
240	0xbf86423c	-1.0488963
241	0xbefe28d1	-0.49640515
242	0x3f139e01	0.5766297
243	0xbf228c00	-0.63494873
244	0x3f47b3d3	0.78008765
245	0x3ea79959	0.32734182
246	0xbf2cf9d1	-0.6756869
247	0x3f2dbe31	0.67868334
248	0x3ed65806	0.41864032
249	0x3ea3f35d	0.3202161
250	0x3ea1bc88	0.3158915
251	0xbf8a0bfd	-1.0784909
252	0xbe93c2fd	-0.28859702
253	0xbfab058d	-1.3361069
254	0x3f38feae	0.7226361
255	0x3e850802	0.25982672

res_blocks.0.main.0.bias_epsilon f4 [32]
0	0xbf6cf76c	-0.92565036
1	0xbf9b269f	-1.2121161
2	0x3f765af2	0.9623252
3	0xbf3f7a4b	-0.7479598
4	0x3fbea2b8	1.4893408
5	0x3f21e9d5	0.63247424
6	0x3f2651d8	0.64968634
7	0xbf9022a3	-1.126057
8	0xbf83d281	-1.0298616
9	0x3f82df6c	1.0224433
10	0x3f898ba4	1.074574
11	0x3f11195a	0.5667931
12	0x3ebd2131	0.36939386
13	0xbfaa4780	-1.330307
14	0xbf34653e	-0.70466983
15	0x3fa28b7c	1.2698817
16	0x3e3e153c	0.18562788
17	0x3f369fef	0.7133779
18	0x3f4deb32	0.80437005
19	0xbf3560e6	-0.7085098
20	0xbec1f9d6	-0.37885922
21	0xbf8d973e	-1.106178
22	0xbfa128c4	-1.2590566
23	0x3f86ac5f	1.0521353
24	0x3fcd5333	1.6041015
25	0xbf56f957	-0.8397421
26	0xbf89cd64	-1.0765805
27	0xbf06b96f	-0.526267
28	0x3f883989	1.0642558
29	0xbf7b0c01	-0.9806519
30	0xbdec5764	-0.11540106
31	0xbf0e16e8	-0.555037

res_blocks.0.main.1.weight f4 [32]
0	0x3f800000	1.0
1	0x3f800000	1.0
2	0x3f800000	1.0
3	0x3f800000	1.0
4	0x3f800000	1.0
5	0x3f800000	1.0
6	0x3f800000	1.0
7	0x3f800000	1.0
8	0x3f800000	1.0
9	0x3f800000	1.0
10	0x3f800000	1.0
11	0x3f800000	1.0
12	0x3f800000	1.0
13	0x3f800000	1.0
14	0x3f800000	1.0
15	0x3f800000	1.0
16	0x3f800000	1.0
17	0x3f800000	1.0
18	0x3f800000	1.0
19	0x3f800000	1.0
20	0x3f800000	1.0
21	0x3f800000	1.0
22	0x3f800000	1.0
23	0x3f800000	1.0
24	0x3f800000	1.0
25	0x3f800000	1.0
26	0x3f800000	1.0
27	0x3f800000	1.0
28	0x3f800000	1.0
29	0x3f800000	1.0
30	0x3f800000	1.0
31	0x3f800000	1.0

res_blocks.0.main.1.bias f4 [32]
0	0x00000000	0.0
1	0x00000000	0.0
2	0x00000000	0.0
3	0x00000000	0.0
4	0x00000000	0.0
5	0x00000000	0.0
6	0x00000000	0.0
7	0x00000000	0.0
8	0x00000000	0.0
9	0x00000000	0.0
10	0x00000000	0.0
11	0x00000000	0.0
12	0x00000000	0.0
13	0x00000000	0.0
14	0x00000000	0.0
15	0x00000000	0.0
16	0x00000000	0.0
17	0x00000000	0.0
18	0x00000000	0.0
19	0x00000000	0.0
20	0x00000000	0.0
21	0x00000000	0.0
22	0x00000000	0.0
23	0x00000000	0.0
24	0x00000000	0.0
25	0x00000000	0.0
26	0x00000000	0.0
27	0x00000000	0.0
28	0x00000000	0.0
29	0x00000000	0.0
30	0x00000000	0.0
31	0x00000000	0.0
